models/latest_model.pth (torch, 475143 bytes, 10 tensors)

conv1.weight f4 [40, 1, 5, 5]
0.1560088 0.016825648 0.11843372 -0.060267225 -0.13117693 -0.1366357 -0.009618836 0.104336105
0.16831566 -0.1501345 0.13531642 0.04067183 0.20722662 -0.14358178 -0.1436762 0.21872942
0.04609114 0.051135406 0.22787903 0.04478227 -0.05523964 0.07041663 0.026837438 -0.062167708
0.1807774 -0.18956539 0.05246866 -0.14569874 0.11625444 -0.13806777 0.0035065266 -0.20794979
0.15089831 0.024982976 -0.06602668 -0.15316066 -0.047684725 -0.084052056 -0.17931046 0.02914738
0.18816759 0.19962107 0.13392836 -0.019708121 0.22690842 0.2476662 -0.08612085 0.13249135
-0.035719413 -0.1634087 -0.08752173 0.26476935 0.19327998 0.14107986 -0.059213795 0.11752956
0.25681025 0.1037243 -0.076240696 -0.11197886 -0.17084393 0.20084022 0.25106433 -0.044069674
0.18460195 0.07378992 -0.124658845 0.24066368 -0.014904597 0.088522345 -0.089102134 -0.016145432
0.08871187 0.12659606 0.12694526 -0.16847993 -0.014890899 -0.036257144 -0.02249562 -0.013656426
0.15601902 -0.027822435 0.023619205 0.1486154 0.06608955 0.09237574 0.05797404 -0.07912194
-0.06066682 -0.16876999 -0.14854898 0.13146093 -0.009554253 -0.19477172 -0.117197804 -0.14323886
0.03308095 0.10758728 0.10544557 0.17510529 0.036797743 0.14770572 0.02101428 0.17498252
0.18628964 -0.05404311 0.042479996 -0.061919104 -0.1701343 0.20979875 -0.022683382 -0.13615459
-0.1164182 -0.12368865 0.07950683 -0.01030919 0.04531832 -0.055494543 -0.19388138 -0.09099687
-0.19888306 0.017456777 0.13922155 -0.15317066 0.08101892 0.2141168 0.08597793 0.11003279
-0.19536635 -0.09620746 -0.13158938 0.07418483 0.08991898 -0.1159932 0.1288717 0.23318264
0.029303495 -0.09720842 0.07460591 -0.15422943 0.08246447 -0.12011233 0.14720213 -0.19014548
0.08528414 0.19358326 -0.06441237 -0.027938306 -0.015171362 -0.19676061 -0.024556085 -0.010939352
0.21105246 0.2327696 -0.025271125 -0.08219244 0.22612956 0.06426347 0.112035796 -0.029663911
0.19424742 0.22237343 0.10884644 0.28240398 0.22352915 -0.16988194 -0.19569829 -0.041560985
0.22205192 0.08682272 0.009620807 -0.14810863 -0.21295898 -0.03796315 0.12709166 -0.14328782
-0.0043282 -0.17316447 0.06845209 -0.20230453 0.23188706 0.24037746 0.14878224 -0.04486995
0.18886216 0.120674804 0.069830865 0.0042938343 0.14744902 0.24475111 0.10342465 -0.13779609
0.050038088 0.14367945 0.008881313 -0.20163302 -0.05765981 0.041104063 0.032034177 -0.20110631
0.047806196 0.19241768 -0.020358423 0.11873458 -0.030707482 0.15139854 -0.05166791 -0.043288108
0.11218452 -0.040318295 0.016438782 -0.1019555 0.24651253 0.0005113439 0.19460745 0.05984337
0.08899394 0.30580172 0.23389591 0.18495892 0.14291655 0.03274172 0.22495927 -0.043034542
-0.13646163 -0.1481816 -0.10436918 0.14264828 0.13812965 0.17296204 -0.15541409 0.2135735
0.1184699 -0.14002441 -0.16064723 -0.0012042284 0.12613566 0.23694997 -0.14521442 -0.13970844
-0.1681444 0.2369438 0.1950562 0.06693047 -0.056872614 0.17447862 0.18522975 -0.13833223
0.026752789 -0.21755584 -0.17185946 -0.13126487 0.03771383 0.021383014 -0.036942653 0.009367692
00000000: c5c0 1f3e f1d5 893c 618d f23d c4da 76bd
00000010: 3f53 06be 3bea 0bbe 5398 1dbc 2bae d53d
00000020: f15a 2c3e dcbc 19be 6390 0a3e 8197 263d
00000030: 3733 543e 1a07 13be db1f 13be 9bfa 5f3e
00000040: 10ca 3c3d 5c73 513d 1f59 693e 9d6d 373d
00000050: f642 62bd 9836 903d 30da db3c 91a3 7ebd
00000060: b61d 393e 6e1d 42be 61e9 563d 0d32 15be
00000070: cf16 ee3d a361 0dbe c1cd 653b caf0 54be
00000080: 1685 1a3e 19a9 cc3c ff38 87bd 26d6 1cbe
00000090: 0f51 43bd 7c23 acbd 299d 37be 7cc6 ee3c
000000a0: 01af 403e 7769 4c3e 8424 093e ed72 a1bc
000000b0: ae5a 683e 359c 7d3e 2160 b0bd d0ab 073e
000000c0: 854e 12bd 9c54 27be 983e b3bd d98f 873e
000000d0: 30eb 453e 3d77 103e 2a8a 72bd 57b3 f03d
000000e0: a27c 833e 686d d43d 1524 9cbd 2c55 e5bd
000000f0: b6f1 2ebe 0fa9 4d3e 818b 803e 6782 34bd
00000100: 4b08 3d3e 2b1f 973d 234d ffbd 8a70 763e
00000110: 6932 74bc 344b b53d 2e7b b6bd 6d43 84bc
00000120: 92ae b53d 66a2 013e f0fd 013e 0186 2cbe
00000130: f5f8 73bc 5f82 14bd bc48 b8bc 34bf 5fbc
00000140: 73c3 1f3e e0eb e3bc 107d c13c a32e 183e
00000150: f559 873d 7e2f bd3d 3076 6d3d af0a a2bd
00000160: c57d 78bd 0ad2 2cbe 391d 18be b29d 063e
00000170: 7189 1cbc 3d72 47be 6705 f0bd 35ad 12be
00000180: e47f 073d b856 dc3d d9f3 d73d cd4e 333e
00000190: 3bb9 163d 2b40 173e 2426 ac3c 9e2e 333e
000001a0: b6c2 3e3e 4f5c 5dbd 81ff 2d3d e39e 7dbd
000001b0: b037 2ebe 7cd5 563e 80d2 b9bc 1c6c 0bbe
000001c0: aa6c eebd 7a50 fdbd 7ad4 a23d e0e7 28bc
000001d0: b49f 393d 3f4e 63bd d788 46be 915c babd
000001e0: 00a8 4bbe 8401 8f3c 1890 0e3e c5d8 1cbe
000001f0: 3fed a53d 6f41 5b3e 3215 b03d df58 e13d
00000200: 1e0e 48be 6b08 c5bd 5ebf 06be 37ee 973d
00000210: 7127 b83d d88d edbd f1f6 033e 6ec7 6e3e
00000220: e20d f03c 3515 c7bd fcca 983d 52ee 1dbe
00000230: 22e3 a83d 74fd f5bd 28bc 163e 7fb5 42be
00000240: 74a9 ae3d b13a 463e a2ea 83bd e0de e4bc
00000250: 4e91 78bc 9d7b 49be d829 c9bc f83a 33bc
00000260: 231e 583e 275b 6e3e 6405 cfbc 8354 a8bd
00000270: 828e 673e 919c 833d 0673 e53d bb01 f3bc
00000280: cce8 463e dcb5 633e e2ea de3d 4197 903e
00000290: d3e4 643e 88f5 2dbe 2265 48be da3b 2abd
000002a0: 9461 633e 1cd0 b13d 97a0 1d3c caa9 17be
000002b0: eb11 5abe 3f7f 1bbd 5124 023e 0bba 12be
000002c0: 93d3 8dbb 0752 31be 9c30 8c3d eb28 4fbe
000002d0: cd73 6d3e 8225 763e 5f5a 183e 8dc9 37bd
000002e0: 1565 413e 5a24 f73d 7c03 8f3d 4bb3 8c3b
000002f0: e0fc 163e 09a0 7a3e 4ed0 d33d 6b1a 0dbe
00000300: bdf4 4c3d b520 133e ed82 113c e378 4ebe
00000310: b12c 6cbd bc5c 283d 4536 033d d0ee 4dbe
00000320: 6ed0 433d 2409 453e b5c6 a6bc 1e2b f33d
00000330: 428e fbbc 3808 1b3e bba1 53bd df4e 31bd
00000340: ffc0 e53d cc24 25bd a0aa 863c 0cce d0bd
00000350: c86d 7c3e b50b 063a 2d47 473e 521e 753d
00000360: 7442 b63d 0b92 9c3e 6982 6f3e df65 3d3e
00000370: b758 123e 2f1c 063d b95b 663e fd44 30bd
00000380: 99bc 0bbe ebbc 17be 82bf d5bd 6412 123e
00000390: dc71 0d3e f61c 313e df24 1fbe 03b3 5a3e
000003a0: 59a0 f23d 8f62 0fbe b580 24be 33d7 9dba
000003b0: b529 013e 03a3 723e 17b3 14be bb0f 0fbe
000003c0: 0c2e 2cbe 65a1 723e d0bc 473e d812 893d
000003d0: 42f3 68bd 86aa 323e deac 3d3e f7a6 0dbe
000003e0: aa28 db3c f5c6 5ebe edfb 2fbe 4c6a 06be
000003f0: d179 1a3d 6e2b af3c 2e51 17bd f37a 193c

conv1.bias f4 [40]
0.18192104 0.15423697 -0.08403101 -0.02291012 -0.01851465 -0.13536642 0.07989354 -0.09256474
0.14574973 -0.099326774 0.09509402 0.106333084 0.07848924 0.0961946 -0.041990332 0.23001663
0.14596774 0.1617972 0.20604564 -0.18025155 -0.09272247 0.14967474 0.10782756 0.096215285
0.10606836 -0.001289743 0.19117871 0.03219019 0.19847913 -0.10864489 -0.19209144 -0.036605883
-0.008215351 -0.061619986 -0.15338506 -0.11137963 -0.0530124 -0.18542564 -0.02036574 -0.0061346446
00000000: 8249 3a3e 4cf0 1d3e 7318 acbd 01ae bbbc
00000010: 09ac 97bc 7f9d 0abe 399f a33d 9592 bdbd
00000020: 6b3f 153e d66b cbbd a7c0 c23d 29c5 d93d
00000030: f7be a03d ad01 c53d 0efe 2bbd 7b89 6b3e
00000040: 9178 153e 2aae 253e a1fd 523e dd93 38be
00000050: 47e5 bdbd 5644 193e b2d4 dc3d 850c c53d
00000060: 5e3a d93d 980c a9ba 5ac4 433e dcd9 033d
00000070: 1d3e 4b3e 3681 debd 9eb3 44be 0df0 15bd
00000080: ae99 06bc 3d65 7cbd f910 1dbe 011b e4bd
00000090: 8823 59bd 38e0 3dbe 0dd6 a6bc 2105 c9bb

conv2.weight f4 [40, 40, 5, 5]
0.022778478 0.015518726 0.015395277 0.012770648 0.029898945 0.03614784 0.022712065 -0.015482995
0.0076539074 0.012393893 0.0055229873 0.013891541 0.013543303 0.0055672964 -0.030668799 -0.009282848
-0.01661922 0.02014382 0.022319047 -0.0006828632 -0.006276357 0.03709931 -0.018930068 -0.016866466
0.01695282 -0.012089921 0.01697036 -0.016679576 -0.019113112 0.030304834 -0.006834245 0.025607657
-0.02875119 -0.022552913 -0.0181437 0.030763237 0.028369164 -0.010391532 -0.001538545 0.017163893
-0.005380405 0.028400669 0.0052916557 0.008860022 0.020705197 -0.012769561 0.026698563 0.03864346
0.017617349 0.019614143 -0.012772531 0.0060191667 0.007826736 0.015082849 0.0016877396 0.022777293
-0.027052796 -0.027302135 0.001999378 0.03292966 0.022493815 0.008515741 0.013169076 -0.02368963
-0.034541212 0.029654248 0.0062193023 -0.0047776173 0.024126261 -0.00010514155 0.020294502 -0.023975313
-0.020895354 0.024823597 -0.02984417 -0.026108846 0.0109288525 0.008373333 0.015172218 -0.006488491
-0.014134872 -0.011465373 0.004127159 0.019066513 0.00029847116 -0.0072198743 0.009944658 -0.0045089987
0.007488918 0.019171122 -0.0112656085 -0.025249619 0.010448768 0.023448905 -0.028345784 -0.0032571554
0.03399287 0.032973398 -0.0001280493 0.0085386075 -0.005986695 -0.019528154 0.02811941 -0.00578103
0.039301276 -0.016568767 -0.0009856989 0.020583704 -0.011733995 -0.0065461714 -0.029250348 -0.013129454
0.02761563 -0.010613541 -0.018008618 -0.016097398 -0.017666383 -0.00963425 -0.010953949 0.027831277
-0.03169765 0.020466452 0.010956245 -0.029872691 0.008634724 -0.00037454287 0.003910342 -0.023877379
0.017896248 -0.012764277 0.018853066 -0.02065266 -0.028419634 -0.03134154 0.0025526504 -0.010607514
0.029336888 -0.025836933 -0.03428914 0.0020228443 -0.015147229 0.016133802 0.0042783897 0.0036234227
-0.01023147 -0.0004052736 0.0032176145 0.0146706635 0.029473374 -0.02615611 0.026742596 -0.014096271
-0.0075929747 0.01854063 -0.0069428296 -0.017173083 -0.008138039 -0.011652471 0.004714158 -0.005456163
-0.037620533 0.012449025 -0.017129274 0.019212926 -0.024271248 -0.031909306 -0.015045915 -0.016114088
0.0058710147 0.018406577 -0.016063195 -0.014592412 -0.01923385 0.035194125 0.04088715 0.019589948
0.0075050425 0.018430287 0.04150376 -0.004547475 -0.013726137 0.0151480865 0.0005108146 -0.0036836432
0.0027921929 -0.0037685353 0.016401388 -0.00056967576 0.017539041 -0.0328607 0.0016832426 -0.010104563
-0.010611702 0.012237522 0.029484149 -0.020846944 -0.018877609 0.008148292 -0.010068311 0.002597471
-0.018009081 0.0018798367 -0.017108457 -0.020773709 0.023627117 0.018895902 -0.0054455805 -0.041876025
0.0013418791 0.0022874498 -0.02671402 -0.043081757 -0.024366876 0.0071878135 -0.025514437 0.034788728
0.02294975 0.02633139 -0.02757338 0.0037709367 0.02340631 0.026463047 0.026152924 0.034582563
-0.0061430545 -0.015016344 0.0013115221 -0.022465358 -0.02019417 -0.022582924 0.026931848 -0.012064796
0.02040819 -0.019296728 -0.022411903 0.0073867203 -0.04497418 0.015464988 -0.021610197 -0.032265935
-0.0011331998 0.0011603184 -0.018022142 -0.008964064 -0.017187608 0.029910386 -0.013910516 -0.022441031
-0.024025487 -0.0065205535 -0.023025947 0.0066293115 0.005690802 0.030279795 -0.020368746 0.038632095
00000000: ee99 ba3c 4142 7e3c 793c 7c3c fb3b 513c
00000010: a2ee f43c c20f 143d a70e ba3c 63ac 7dbc
00000020: a1cd fa3b c10f 4b3c 2dfa b43b 5999 633c
00000030: bbe4 5d3c de6d b63b 223d fbbc 1617 18bc
00000040: 0825 88bc a704 a53c 6fd6 b63c 2c02 33ba
00000050: e6a9 cdbb 72f5 173d 3b13 9bbc 8b2b 8abc
00000060: a4e0 8a3c ce14 46bc 6d05 8b3c 9ba3 88bc
00000070: 1a93 9cbc d841 f83c cdf1 dfbb 26c7 d13c
00000080: 9e87 ebbc e3c0 b8bc 19a2 94bc 2f03 fc3c
00000090: 7366 e83c 3f41 2abc 01a9 c9ba 4b9b 8c3c
000000a0: 1c4e b0bb 85a8 e83c a065 ad3b a029 113c
000000b0: f29d a93c 6c37 51bc f2b6 da3c 9b48 1e3d
000000c0: 4252 903c d7ad a03c e143 51bc 6e3c c53b
000000d0: b63b 003c 0e1e 773c 2537 dd3a 7297 ba3c
000000e0: d39d ddbc baa8 dfbc ff07 033b 40e1 063d
000000f0: f344 b83c 9b85 0b3c 1cc3 573c c110 c2bc
00000100: 167b 0dbd 77ed f23c 4acb cb3b 8f8d 9cbb
00000110: 70a4 c53c 717f dcb8 a840 a63c e067 c4bc
00000120: bc2c abbc db5a cb3c c37b f4bc 38e2 d5bc
00000130: ee0e 333c 4e30 093c e594 783c 689d d4bb
00000140: f395 67bc 43d9 3bbc 1e3d 873b 6031 9c3c
00000150: 1f7c 9c39 b294 ecbb ebee 223c 39c0 93bb
00000160: 9965 f53b c20c 9d3c 6393 38bc 4ad8 cebc
00000170: 4f31 2b3c eb17 c03c 6b35 e8bc 0076 55bb
00000180: 1c3c 0b3d 1d0f 073d f944 06b9 84e5 0b3c
00000190: 0a2c c4bb 82f9 9fbc ad5a e63c cb6e bdbb
000001a0: 60fa 203d 39bb 87bc 9132 81ba 289f a83c
000001b0: f13f 40bc 4481 d6bb 6d9e efbc ec1c 57bc
000001c0: 2c3a e23c 6be4 2dbc cf86 93bc b1de 83bc
000001d0: 17b9 90bc f9d8 1dbc 3178 33bc 6bfe e33c
000001e0: 65d5 01bd 43a9 a73c d281 333c 93b7 f4bc
000001f0: a878 0d3c 4b5e c4b9 5422 803b 7e9a c3bc
00000200: 279b 923c 4221 51bc bf71 9a3c c42f a9bc
00000210: 4bd0 e8bc fd5f 00bd 5e4a 273b 23cb 2dbc
00000220: ea53 f03c faa7 d3bc c572 0cbd b291 043b
00000230: 152c 78bc 092b 843c bc31 8c3b f276 6d3b
00000240: e5a1 27bc e77a d4b9 9dde 523b 395d 703c
00000250: 2572 f13c 5745 d6bc 4a13 db3c 0cf4 66bc
00000260: 7dce f8bb 85e2 973c ad80 e3bb 91ae 8cbc
00000270: 6955 05bc 01ea 3ebc 3979 9a3b 9dc9 b2bb
00000280: fd17 1abd fff6 4b3c b152 8cbc 6d64 9d3c
00000290: 7fd4 c6bc 55b3 02bd 2483 76bc b101 84bc
000002a0: a461 c03b 64c9 963c f696 83bc 0315 6fbc
000002b0: 4f90 9dbc b727 103d 4979 273d 197b a03c
000002c0: dcec f53b 1dfb 963c d9ff 293d fc02 95bb
000002d0: 97e3 60bc ae2f 783c 30e8 053a 4769 71bb
000002e0: 39fd 363b 88f9 76bb 345c 863c 4b56 15ba
000002f0: 09ae 8f3c f198 06bd 40a0 dc3a 9c8d 25bc
00000300: b4dc 2dbc e37f 483c be88 f13c 36c7 aabc
00000310: 37a5 9abc 6a80 053c 8ff5 24bc 553a 2a3b
00000320: c887 93bc da64 f63a 0927 8cbc a02d aabc
00000330: a88d c13c 94cb 9a3c d770 b2bb 3286 2bbd
00000340: fee1 af3a 0ae9 153b 5cd7 dabc 7f76 30bd
00000350: 0b9d c7bc c087 eb3b a703 d1bc a07e 0e3d
00000360: 1d01 bc3c edb4 d73c 92e1 e1bc d221 773b
00000370: 97be bf3c 08c9 d83c a83e d63c 72a6 0d3d
00000380: ad4b c9bb 1d07 76bc 61e7 ab3a 4509 b8bc
00000390: 3e6e a5bc d3ff b8bc 2ea0 dc3c 6cab 45bc
000003a0: 142f a73c 2c14 9ebc 2b99 b7bc 4d0c f23b
000003b0: d936 38bd dc60 7d3c de07 b1bc 4929 04bd
000003c0: e087 94ba d315 983a 2ca3 93bc 02de 12bc
000003d0: 07cd 8cbc a006 f53c efe8 63bc 41d6 b7bc
000003e0: 19d1 c4bc 5eaa d5bb e9a0 bcbc b23a d93b
000003f0: e879 ba3b 550d f83c 5bdc a6bc b03c 1e3d

conv2.bias f4 [40]
0.03432383 -6.0663526e-05 0.0044265953 0.02927579 0.03165461 -0.004063404 0.014400109 0.018479683
0.02576897 0.014028972 0.024456441 -0.020945141 -0.029769044 -0.020215692 0.033444706 -0.01239086
-0.013914374 0.029587006 0.010089329 0.02750886 0.009956799 0.030415868 -0.0037172919 -0.00032574727
0.018799873 0.015300208 -0.01145464 -0.021432996 -0.025711812 -0.019440884 -0.016111184 -0.02710931
-0.02591108 -0.017276932 -0.022030808 -0.01109318 0.013899079 0.014469302 -0.01615803 -0.030020745
00000000: 2597 0c3d f770 7eb8 f90c 913b c8d3 ef3c
00000010: 44a8 013d 4e26 85bb 6fee 6b3c b462 973c
00000020: 7219 d33c c6d9 653c e058 c83c 2595 abbc
00000030: 36de f3bc 619b a5bc 51fd 083d 0903 4bbc
00000040: 1df9 63bc 7360 f23c b74d 253c 435a e13c
00000050: d821 233c b32a f93c cf9d 73bb 0fc9 aab9
00000060: 3102 9a3c b9ad 7a3c 3eac 3bbc 4094 afbc
00000070: 94a1 d2bc 7d42 9fbc 9afb 83bc 5814 debc
00000080: 7943 d4bc 5a88 8dbc f479 b4bc 2bc0 35bc
00000090: f6b8 633c a710 6d3c d85d 84bc 11ee f5bc

fc1.weight f4 [100, 640]
-0.0112445615 0.02338446 0.017467339 -0.014221424 -0.022558734 -0.015058548 0.0016828208 -0.0176592
-0.003594236 -0.024826774 0.012659417 -0.019331798 -0.0056379954 0.010044579 -0.010072936 -0.0037361078
-0.0016154367 0.045646876 -0.014020903 0.047173526 -0.02389233 0.015892042 0.012246489 -0.00022142436
0.008640667 0.021720767 0.0026581592 0.033419386 0.011924833 -0.014563124 0.03607976 0.021936025
-0.021846147 -0.0004576763 0.0034995263 -0.009826968 0.016798425 -0.019348808 -0.014420108 0.0036709323
0.03762172 -0.016531073 0.032433387 -0.026742332 0.01860918 0.030313354 0.018582996 -0.03466064
0.039996594 0.022527585 -0.04420447 -0.034191415 0.0039487863 -0.015397353 -0.027514646 -0.033340476
-0.030987728 0.023751954 -0.0059467778 -0.027736256 0.008381596 0.0018319414 -0.0044376305 0.024301201
0.004475315 -0.008286555 0.0038763986 0.021672945 0.019695034 0.00073565776 -0.016430488 -0.0023482584
-0.030330248 0.009044114 -0.01958869 -0.0004158668 0.053679757 -0.014880895 0.043933515 0.020685665
0.043206073 0.011070305 -0.039721098 -0.0075171916 -0.021683022 0.028779574 -0.00037665447 0.019149536
0.022477597 0.037435107 0.0019439451 -0.015589157 0.00650226 -0.008906149 -0.0038451848 0.013052803
0.036809567 -0.018436426 -0.019009734 0.036159635 0.025904542 -0.025818946 0.00068805134 0.016955566
-0.022797797 -0.004558363 0.013007512 -0.006727616 -0.03188861 0.02610554 -0.0035981196 -0.01905327
-0.014548337 -0.036920078 2.8206812e-05 0.01759541 -0.015337684 -0.027127054 0.0026280142 0.004215583
-0.032825865 -0.026405752 0.046493784 -0.01797318 0.0064905947 0.011099288 0.017349452 -0.031191602
0.033231024 0.010086223 0.015185668 0.013520402 -0.017848264 -0.020233242 0.0012213434 0.034459922
-0.010768195 -0.030781787 0.014196412 0.020160446 -0.010575361 -0.009047065 -0.018055039 0.003671745
0.04247572 0.026451899 -0.034099113 -0.04031373 0.047859095 0.015373111 0.036619592 0.0052872715
0.016634237 0.029519776 -0.0034733 0.04703881 -0.008275767 -0.013272045 0.023838572 -0.032378796
0.046173535 0.017632486 0.007048805 -0.03840481 -0.0089250235 -0.0076536615 0.027479326 -0.0418335
-0.019289615 -0.0068807187 0.011859021 0.02311947 -0.005496608 0.017648552 0.011436888 0.03350478
-0.03849672 0.007861171 0.0063997414 -0.009167424 -0.0021432866 0.018622112 0.021077221 -0.01876815
0.030523196 0.030713405 0.020757908 0.018129122 0.0302543 -0.03343932 0.006507587 0.027597304
0.008995307 -0.048723582 -0.042941313 -0.019933721 -0.04656914 0.034160573 -0.012292057 0.048095927
-0.0012508773 0.029595958 0.022238031 0.008697328 0.03198706 -0.019220892 -0.018141598 0.0017555828
-0.0021217032 -0.011750766 -0.032333493 -0.02605611 0.009011059 0.02173649 0.019319272 0.002253219
-0.036303237 0.0018901752 -0.014822274 -0.015200237 0.005859589 -0.0029028803 0.03272628 0.007688342
0.03249586 0.04246871 0.045250095 0.051229134 0.015001241 -0.0486809 -0.041189242 0.02481107
-0.05401732 -0.032612212 -0.007989438 -0.03507868 0.0019446056 0.004336499 -0.006618126 -0.032446392
0.011852134 0.0039447877 0.010908857 0.028383069 0.047257822 0.04823284 0.033772744 0.020188194
-0.02203209 0.0060570627 0.0022668354 0.021453965 -0.008266541 0.011760099 -0.008133238 0.015069704
00000000: 1c3b 38bc c490 bf3c aa17 8f3c fa00 69bc
00000010: 18cd b8bc 21b8 76bc 1992 dc3a 07aa 90bc
00000020: 468d 6bbb 8561 cbbc 7269 4f3c b85d 9ebc
00000030: efbe b8bb 0592 243c f508 25bc 7dd9 74bb
00000040: 10bd d3ba 38f8 3a3d eeb7 65bc 0739 413d
00000050: d9b9 c3bc 0730 823c 7fa5 483c 262e 68b9
00000060: 9691 0d3c c0ef b13c 8334 2e3b c4e2 083d
00000070: 6060 433c 2b9a 6ebc 5fc8 133d 2eb3 b33c
00000080: b1f6 b2bc 46f4 efb9 4f58 653b 4b01 21bc
00000090: da9c 893c 6481 9ebc 5142 6cbc 0694 703b
000000a0: 3c19 1a3d 2c6c 87bc dfd8 043d bc12 dbbc
000000b0: 4772 983c b653 f83c 5e3b 983c 51f8 0dbd
000000c0: 78d3 233d c58b b83c bf0f 35bd 4c0c 0cbd
000000d0: d264 813b 2e45 7cbc 6566 e1bc 0690 08bd
000000e0: fad9 fdbc 7593 c23c 30dd c2bb 2537 e3bc
000000f0: f652 093c c11d f03a 8b69 91bb 5013 c73c
00000100: aaa5 923b 55c4 07bc 2d0b 7e3b 768b b13c
00000110: 7b57 a13c 28d9 403a 3b99 86bc 3de5 19bb
00000120: 2477 f8bc c32d 143c 7678 a0bc b208 dab9
00000130: 4edf 5b3d ffce 73bc a1f3 333d fc74 a93c
00000140: daf8 303d 3960 353c 97b2 22bd c652 f6bb
00000150: 98a0 b1bc 24c3 eb3c b579 c5b9 7ddf 9c3c
00000160: f022 b83c 8e55 193d f9cb fe3a aa69 7fbc
00000170: e910 d53b 19eb 11bc 7fff 7bbb 6ddb 553c
00000180: a1c5 163d fd07 97bc 4dba 9bbc 201c 143d
00000190: c335 d43c 4182 d3bc 585e 343a 66e6 8a3c
000001a0: 72c2 babc 525e 95bb 761d 553c 5573 dcbb
000001b0: a29d 02bd 49db d53c 6ece 6bbb 9a15 9cbc
000001c0: 265c 6ebc 8239 17bd ab9d ec37 4024 903c
000001d0: e94a 7bbc 8e39 debc c33a 2c3b e022 8a3b
000001e0: 6a74 06bd e050 d8bc 4470 3e3d 7e3c 93bc
000001f0: 0eaf d43b cad9 353c 7020 8e3c 8885 ffbc
00000200: 411d 083d af40 253c 4fcd 783c ad84 5d3c
00000210: 8636 92bc 2fc0 a5bc 7c15 a03a d925 0d3d
00000220: 156d 30bc 162a fcbc 1198 683c 8527 a53c
00000230: 4744 2dbc 243a 14bc 29e8 93bc a9a1 703b
00000240: 05fb 2d3d a7b1 d83c 83ab 0bbd 0220 25bd
00000250: e607 443d 80df 7b3c 6dfe 153d d940 ad3b
00000260: 8644 883c 75d3 f13c 4ea0 63bb c4ab 403d
00000270: 1597 07bc fe72 59bc 1c49 c33c a19f 04bd
00000280: 7620 3d3d 0172 903c a9f9 e63b 5d4e 1dbd
00000290: 433a 12bc 91cb fabb 531c e13c 9b59 2bbd
000002a0: 4105 9ebc a777 e1bb 574c 423c 0b65 bd3c
000002b0: e41c b4bb b293 903c c961 3b3c 4f3c 093d
000002c0: bdae 1dbd 24cc 003c ecb4 d13b f732 16bc
000002d0: 6276 0cbb 668d 983c 23aa ac3c aabf 99bc
000002e0: c80b fa3c ae9a fb3c 7d0c aa3c 8683 943c
000002f0: ded7 f73c abf7 08bd 993d d53b be13 e23c
00000300: 0d61 133c 6192 47bd 3be3 2fbd 0b4c a3bc
00000310: 48bf 3ebd f5eb 0b3d a064 49bc 3c00 453d
00000320: 7af4 a3ba 3973 f23c 882c b63c 3d7f 0e3c
00000330: dd04 033d 2275 9dbc b09d 94bc 951b e63a
00000340: 460c 0bbb 4986 40bc 2070 04bd a073 d5bc
00000350: 1fa3 133c b910 b23c 7343 9e3c beaa 133b
00000360: b4b2 14bd c1bf f73a 20d9 72bc 6a0a 79bc
00000370: cc01 c03b 403e 3ebb fe0b 063d 7dee fb3b
00000380: 611a 053d acf3 2d3d 2a58 393d a4d5 513d
00000390: c4c7 753c a065 47bd 0db6 28bd 9640 cb3c
000003a0: 4441 5dbd 6294 05bd 22e6 02bc a9ae 0fbd
000003b0: 23e2 fe3a 3119 8e3b dddc d8bb 82e6 04bd
000003c0: 742f 423c 4743 813b 10bb 323c 9c83 e83c
000003d0: 6b91 413d cc8f 453d 4a55 0a3d b661 a53c
000003e0: a47c b4bc 537a c63b 308f 143b 3ac0 af3c
000003f0: 6370 07bc 6ead 403c 4641 05bc ebe6 763c

fc1.bias f4 [100]
-0.0103724245 -0.024817398 -0.0186769 0.034268238 -0.0037587977 -0.026313964 0.01523805 -0.03451335
1.7312805e-05 -0.0051802807 -0.0317679 -0.013027874 -0.0055745635 0.0011463787 0.033152282 0.006128035
-0.021104107 0.003538904 -0.0143931145 -0.022987412 -0.0053500948 -0.0142672835 0.011387845 -0.03678046
0.027918775 0.0011540324 0.041977923 0.015675057 0.0043081995 0.012070767 0.030228926 -0.004270678
-0.030394614 -0.02062906 -0.035728417 -0.013542679 -0.018607028 0.028779984 -0.020999033 0.015203803
0.032676734 -0.00766504 0.019139944 -0.02461096 0.020050975 0.0064032055 0.005498769 0.025289651
-0.00052540057 -0.03376046 0.018168926 0.037713684 0.008964186 -0.0032396102 -0.033290148 0.02590242
-0.034682676 0.038878363 -0.004644653 0.036027793 0.0040861154 0.0053720623 0.011232176 -0.016178517
0.031482715 0.0014774686 0.027149472 0.0014968475 0.015506367 -0.01565602 -0.009148718 -0.03399976
0.016439164 0.022082219 -0.016651627 0.013711004 -0.037763305 0.03931323 -0.03324322 0.002714844
0.0037367307 -0.008840774 0.010059136 -0.017293748 0.019574707 -0.0036132424 0.022876177 0.02344152
-0.032189626 0.036457818 -0.01681427 0.0103030875 0.013907406 0.038584698 0.010291398 -0.024652662
-0.03525047 -0.013362509 -0.021887435 -0.03470002
00000000: 1af1 29bc db4d cbbc 4c00 99bc da5c 0c3d
00000010: 2956 76bb 6290 d7bc 04a9 793c df5d 0dbd
00000020: f73a 9137 58bf a9bb 0f1f 02bd dd72 55bc
00000030: d4aa b6bb 1642 963a b0ca 073d afcd c83b
00000040: 85e2 acbc f5ec 673b 19d1 6bbc 1950 bcbc
00000050: d94f afbb 53c1 69bc 1594 3a3c 1ca7 16bd
00000060: eab5 e43c e742 973a 0bf1 2b3d fa68 803c
00000070: cc2b 8d3b 77c4 453c a7a2 f73c 0bf1 8bbb
00000080: 20fe f8bc 46fe a8bc f657 12bd 1de2 5dbc
00000090: c46d 98bc 00c4 eb3c 2a06 acbc 5f19 793c
000000a0: 0ad8 053d 042b fbbb 5fcb 9c3c ed9c c9bc
000000b0: f141 a43c fbd1 d13b 052f b43b 3e2c cf3c
000000c0: 09bb 09ba 6848 0abd 00d7 943c aa79 1a3d
000000d0: 85de 123c a44f 54bb 405b 08bd 5031 d43c
000000e0: 6c0f 0ebd eb3e 1f3d 2c32 98bb e191 133d
000000f0: d2e4 853b 2008 b03b 2907 383c cf88 84bc
00000100: 05f4 003d 9fa7 c13a 9268 de3c de31 c43a
00000110: 6b0e 7e3c 0e41 80bc 81e4 15bc 5543 0bbd
00000120: 6dab 863c c5e5 b43c fe68 88bc 1ea4 603c
00000130: b2ad 1abd e906 213d 0b2a 08bd 86eb 313b
00000140: f0e3 743b e5d8 10bc 13cf 243c 9eab 8dbc
00000150: 235b a03c 26cc 6cbb d266 bb3c 6e08 c03c
00000160: 45d9 03bd cb54 153d 14be 89bc 48ce 283c
00000170: e3db 633c fd0a 1e3d 409d 283c 61f4 c9bc
00000180: cc62 10bd 6dee 5abc 474d b3bc 9c21 0ebd

fc2.weight f4 [100, 100]
-0.065470725 0.0072305463 -0.06789858 0.06418075 0.07408975 0.04279147 0.09167773 -0.035448395
0.036583755 0.08725933 -0.080836706 0.011159662 0.0967854 -0.021401577 0.026301738 0.017999662
-0.032960985 -0.06606931 0.10539325 -0.0026316459 0.014955562 -0.030899828 -0.06686534 -0.031062985
0.09554659 -0.05761628 0.053142056 0.074315175 -0.034407552 -0.062358838 0.028044263 0.077548474
-0.025220715 0.067096755 0.053070914 0.02796099 0.044063535 0.08284735 0.042896677 -0.004848483
-0.08224851 -0.08217057 0.03393704 -0.03354144 -0.079560176 0.040487844 -0.028255107 0.029421907
-0.09109936 -0.029206768 -0.09358887 -0.030729575 -0.057009246 -0.027354125 -0.00052211655 -0.05351881
-0.061779693 0.06459582 0.035194945 0.06605299 -0.08075253 -0.056858364 -0.09927158 -0.07330817
0.013867624 -0.023143187 0.09627512 -0.001830743 -0.09338398 0.030884393 0.098961174 0.071017675
-0.097977765 -0.040132344 -0.054547906 0.10246421 -0.07733007 -0.03020586 -0.08782409 0.07087978
0.06992269 -0.01677529 -0.029173236 -0.0151192965 0.07932557 -0.072485775 0.025743652 0.081953205
0.06302552 -0.06533808 -0.00035091894 -0.097757995 -0.058165073 0.09090194 0.09988883 -0.08136818
0.05350216 0.033974633 -0.09338207 0.07300106 -0.022196045 -0.07191827 0.08875226 -0.052233804
0.10156448 0.03066723 -0.021557963 -0.09200173 0.103209615 0.014365064 -0.029842312 -0.0032780224
0.0096929455 -0.08959397 0.0005695305 -0.0005768472 -0.012309313 -0.06863012 -0.012918166 0.079862036
-0.059051033 0.009583819 -0.105397746 0.09334955 0.08481137 0.08447383 0.025940793 -0.022342233
-0.020963294 -0.00078535004 -0.0923426 0.046642527 0.04597389 -0.075443126 0.051050685 0.07507913
-0.07503458 0.048144702 0.05469147 0.020312304 0.08227245 -0.08760712 0.05309797 0.023263602
0.074942574 0.021111552 0.062366318 -0.01131654 -0.07165039 0.032579593 0.06795879 -0.011793899
-0.0365854 -0.070177004 0.042401806 0.07558207 -0.056536842 -0.0014460773 -0.053927843 -0.10450765
-0.08582471 0.04353338 -0.043496676 -0.08212508 -0.11145861 -0.004028506 0.013222002 -0.008575418
0.11095838 0.065281935 -0.0338155 0.03952985 0.07376653 -0.04411817 -0.0032541533 0.004332845
0.07661651 0.09094767 -0.0040871305 0.067678854 0.062696196 0.025760345 0.09163047 0.0076869642
-0.10146427 -0.082202196 -0.029622547 -0.017983178 0.08795125 0.0989385 0.03519211 0.007481114
-0.02463234 0.057326175 0.04786903 0.02719057 0.0421508 0.045040924 -0.13039182 -0.080665424
0.04183883 -0.06449673 -0.02346851 -0.09683521 -0.08930765 -0.055108845 0.09764721 -0.044335283
0.0629136 0.023481376 -0.022420513 -0.002820233 0.00064925425 -0.08457935 -0.07226147 -0.039573587
-0.09367748 0.014603658 -0.07902428 -0.03683669 -0.06526693 0.032443184 -0.056154236 0.0673066
0.052419398 -0.06395803 -0.06726815 0.062623136 0.059430685 0.034361154 0.09425069 -0.08907695
0.06578353 0.06689856 0.08727472 -0.086573124 0.056981556 0.09695755 0.04761087 0.058289155
0.0027334276 -0.075695686 -0.041622724 0.08909415 -0.09535751 -0.04456003 -0.06644267 0.019569056
0.018912831 -0.014639911 0.0024894972 -0.04919768 -0.060887747 -0.06701847 -0.08283042 -0.08900552
00000000: 8415 86bd 38ee ec3b 690e 8bbd 3271 833d
00000010: 5ebc 973d 1c46 2f3d 89c1 bb3d 5632 11bd
00000020: d9d8 153d 05b5 b23d b78d a5bd 04d7 363c
00000030: 6c37 c63d 5c52 afbc be76 d73c 0774 933c
00000040: 1902 07bd 594f 87bd 6bd8 d73d b177 2cbb
00000050: 2c08 753c a321 fdbc b2f0 88bd cd77 febc
00000060: eead c33d 0cff 6bbd 7cab 593d 8e32 983d
00000070: efee 0cbd fb6b 7fbd 15bd e53c bcd1 9e3d
00000080: ac9b cebc 066a 893d e360 593d 720e e53c
00000090: f77b 343d dfab a93d 6db4 2f3d 06e0 9ebb
000000a0: e871 a8bd 0b49 a8bd 9101 0b3d c062 09bd
000000b0: 72f0 a2bd 95d6 253d 4177 e7bc 3606 f13c
000000c0: 4d92 babd 0843 efbc 85ab bfbd 97bc fbbc
000000d0: 8782 69bd c215 e0bc a6de 08ba 8a36 5bbd
000000e0: b40c 7dbd d04a 843d 9328 103d ca46 873d
000000f0: 9561 a5bd 51e4 68bd e64e cbbd 9822 96bd
00000100: 0835 633c c896 bdbc e42b c53d 8bf5 efba
00000110: 1a40 bfbd 4401 fd3c 28ac ca3d b771 913d
00000120: 91a8 c8bd d061 24bd a06d 5fbd c1d8 d13d
00000130: 3a5f 9ebd 4872 f7bc 1edd b3bd 6b29 913d
00000140: a133 8f3d 556c 89bc b6fc eebc edb6 77bc
00000150: 7275 a23d 6c73 94bd 5ae4 d23c 15d7 a73d
00000160: 8613 813d f9cf 85bd 8bfb b7b9 5835 c8bd
00000170: 803e 6ebd cc2a ba3d 8492 cc3d 5ca4 a6bd
00000180: 1525 5b3d fc28 0b3d 193f bfbd 9481 953d
00000190: 7bd4 b5bc e349 93bd bfc3 b53d 1df3 55bd
000001a0: 0a01 d03d d839 fb3c 539a b0bc 676b bcbd
000001b0: 905f d33d 725b 6b3c dd77 f4bc 17d4 56bb
000001c0: 29cf 1e3c 0b7d b7bd 8b4c 153a 8f37 17ba
000001d0: 00ad 49bc f38d 8cbd b7a6 53bc b58e a33d
000001e0: 7fdf 71bd 7305 1d3c c6da d7bd 0d2e bf3d
000001f0: 95b1 ad3d 9e00 ad3d c981 d43c 0f07 b7bc
00000200: 37bb abbc f3df 4dba 1e1e bdbd 3c0c 3f3d
00000210: 1e4f 3c3d ed81 9abd 861a 513d 16c3 993d
00000220: bbab 99bd 6133 453d 2a04 603d fd65 a63c
00000230: 757e a83d 5d6b b3bd 427d 593d 4f93 be3c
00000240: 7e7b 993d 22f2 ac3c d373 7f3d 0269 39bc
00000250: 71bd 92bd 2e72 053d fa2d 8b3d 333b 41bc
00000260: 93da 15bd f6b8 8fbd 84ad 2d3d c6ca 9a3d
00000270: 2d93 67bd 4d8a bdba 71e3 5cbd 1b08 d6bd
00000280: dec4 afbd 0f50 323d 9229 32bd 3231 a8bd
00000290: 6944 e4bd 8f01 84bb 19a1 583c e97f 0cbc
000002a0: 263e e33d 89b2 853d 1f82 0abd 0dea 213d
000002b0: e812 973d 41b5 34bd a243 55bb 8afa 8d3b
000002c0: 1ee9 9c3d c642 ba3d 56ed 85bb 369b 8a3d
000002d0: dd66 803d 5c07 d33c c1a8 bb3d eee2 fb3b
000002e0: 80cc cfbd a059 a8bd fcaa f2bc 7551 93bc
000002f0: c91f b43d 45a0 ca3d 9a25 103d 2224 f53b
00000300: c3c9 c9bc dace 6a3d 5112 443d c2be de3c
00000310: 51a6 2c3d d57c 383d 6f85 05be ea33 a5bd
00000320: 315f 2b3d dd16 84bd 0841 c0bc 8a51 c6bd
00000330: eee6 b6bd d0b9 61bd 43fb c73d ea98 35bd
00000340: d8d8 803d 045c c03c 39ab b7bc a9d3 38bb
00000350: b732 2a3a f037 adbd d2fd 93bd ea17 22bd
00000360: fbd9 bfbd 2e44 6f3c 7bd7 a1bd 12e2 16bd
00000370: abaa 85bd 25e3 043d fc01 66bd 0bd8 893d
00000380: b9b5 563d 6dfc 82bd e2c3 89bd 8f40 803d
00000390: 976d 733d 48be 0c3d 8106 c13d fa6d b6bd
000003a0: 84b9 863d 1d02 893d 17bd b23d 404d b1bd
000003b0: 7e65 693d ae91 c63d 9e03 433d 9cc0 6e3d
000003c0: 4e23 333b 5706 9bbd 977c 2abd fe76 b63d
000003d0: cc4a c3bd 9484 36bd 1813 88bd 494f a03c
000003e0: 15ef 9a3c 3ddc 6fbc d526 233b 8283 49bd
000003f0: 6e65 79bd fb40 89bd ffa2 a9bd 8748 b6bd

fc2.bias f4 [100]
-0.09993158 -0.04896386 0.061867513 -0.05150135 -0.08555665 0.022669373 0.0031896052 0.037728366
-0.03242927 0.044480972 0.035556834 -0.009260767 0.061239704 -0.0445885 0.067894414 -0.019652994
-0.06911908 -0.027276412 -0.06328247 -0.005831359 -0.06497253 -0.09838005 0.05129458 0.0106628435
0.061265647 0.074332416 -0.0756558 0.09370504 0.034265205 -0.03606186 0.023395939 0.007985914
0.065717466 0.058854777 0.054707486 0.024146667 0.012370825 -0.051376905 0.06498814 -0.09281413
-0.08851333 0.040520545 -0.004263143 0.06609567 -0.089199685 0.06656164 0.017542962 0.092549995
0.043085918 -0.091772474 0.10274696 0.05486838 0.05057667 -0.051998157 0.049037546 0.051641103
-0.09141425 0.04778044 0.081094824 0.041478477 0.00809277 -0.0074728546 0.07388764 -0.07057337
0.06590287 0.09747612 0.029733371 -0.004380155 0.046543553 -0.032940574 -0.022324333 0.09152558
0.07000634 0.015712764 0.00062112755 0.07066809 -0.052004047 0.0712293 -0.021385642 0.008563285
0.08122475 -0.097669914 -0.019727733 -0.059372805 -0.060343716 0.00692023 -0.0046015675 -0.0018879223
0.091967836 0.022702381 -0.036491223 0.0016548359 0.06417426 0.09402388 0.056469165 0.062470257
0.1054813 -0.09521332 -0.07164715 0.105548546
00000000: eea8 ccbd 548e 48bd ca68 7d3d 14f3 52bd
00000010: 5338 afbd 1fb5 b93c b208 513b 0f89 1a3d
00000020: 8ed4 04bd ae31 363d 0ba4 113d 79ba 17bc
00000030: 7cd6 7a3d 6ea2 36bd 3a0c 8b3d 51ff a0bc
00000040: 4e8e 8dbd c872 dfbc 3d9a 81bd fc14 bfbb
00000050: 5110 85bd 7b7b c9bd 441a 523d 35b3 2e3c
00000060: b0f1 7a3d 983b 983d 6ef1 9abd 6ee8 bf3d
00000070: ac59 0c3d 9ab5 13bd d7a8 bf3c 5ad7 023c
00000080: e196 863d b511 713d f514 603d 3bcf c53c
00000090: 00af 4a3c 9770 52bd 8018 853d 5615 bebd
000000a0: 7a46 b5bd dff8 253d d6b1 8bbb 2b5d 873d
000000b0: 53ae b6bd 7851 883d 42b6 8f3c da8a bd3d
000000c0: dc7a 303d 35f3 bbbd 006d d23d abbd 603d
000000d0: 7b29 4f3d 05fc 54bd 98db 483d 9f85 533d
000000e0: 6537 bbbd 6cb5 433d 0b15 a63d 56e5 293d
000000f0: 8a97 043c d9de f4bb 6752 973d c588 90bd
00000100: 15f8 863d 8fa1 c73d 6693 f33c 6787 8fbb
00000110: 74a4 3e3d b2ec 06bd 85e1 b6bc c371 bb3d
00000120: 7c5f 8f3d 0eb8 803c 2ad3 223a 6eba 903d
00000130: 3202 55bd abe0 913d f130 afbc 054d 0c3c
00000140: 2959 a63d 2a07 c8bd 0e9c a1bc e630 73bd
00000150: f92a 77bd 19c3 e23b bfc8 96bb 2974 f7ba
00000160: a259 bc3d 58fa b93c d277 15bd 14e7 d83a
00000170: cb6d 833d 988f c03d 364c 673d d0e0 7f3d
00000180: 9406 d83d 33ff c2bd bebb 92bd d629 d83d

output_layer.weight f4 [10, 100]
-0.043604318 0.100104086 -0.011682484 0.0082627935 0.023148805 -0.0099479705 0.09335697 -0.038932014
0.07605325 -0.06387706 0.05803355 -0.094616756 -0.002780444 -0.0757586 0.042186674 0.058688123
0.0017962679 -0.033406597 0.0662283 0.1704423 -0.13605537 -0.093862325 0.10392336 0.018591374
0.021359889 -0.07086783 -0.07924173 0.07219231 0.007640726 0.027049165 -0.09453045 0.09857944
-0.062836036 0.05488816 -0.00884502 0.050008938 0.09030577 0.009803327 0.040065072 -0.060438696
0.056116294 -0.032184035 0.06910026 0.18842527 0.016584227 -0.05150737 -0.07281862 -0.025685597
-0.074678436 0.03858809 -0.12824792 0.07259061 -0.015457913 0.040873844 -0.008867951 0.005371645
-0.020617424 -0.12306908 0.048032153 -0.037032597 0.093394734 -0.042045195 0.058670368 0.010139702
0.08397979 -0.0656245 0.005459397 0.058358964 -0.14375862 -0.19797064 0.030003177 -0.0010212949
0.08343684 0.110508926 0.069574945 0.09640608 -0.13098727 0.0016967852 -0.01503997 -0.016879288
0.022077663 0.060181852 -0.13977975 -0.1570771 0.14018726 -0.12330069 0.04487539 0.098423086
0.14900312 -0.11662633 -0.028531922 0.031768173 0.12764071 0.03569994 0.0493192 0.034210287
-0.01684117 0.06287883 -0.046615865 -0.09988543 0.04690422 -0.091908954 0.011044048 -0.016325157
-0.0450605 0.032471046 -0.05516846 0.14460184 -0.050286107 -0.06086816 -0.045712776 -0.009500852
-0.006615634 -0.035247147 -0.06152793 0.014055812 0.057190485 0.05316918 0.06360803 0.028282782
-0.025928965 0.053184006 -0.040604003 0.081958115 0.11243345 0.027319735 -0.02480954 -0.11764871
-0.08501642 -0.16025548 -0.05785851 -0.12963133 -0.045152683 0.055285033 0.05888475 -0.17334597
0.033318467 -0.053337272 -0.14029922 -0.13410285 -0.05704611 0.11197689 0.05841579 0.14538766
0.13426657 -0.04985035 -0.13124791 0.013443945 0.16706686 -0.1518176 0.07822654 0.10361812
-0.059183158 -0.010411718 0.1191141 0.0093685705 -0.028208464 0.025796479 0.14811277 -0.018983105
0.04521065 -0.09957029 -0.11809411 0.026704041 0.057717137 -0.06268788 0.031414345 0.18415195
0.05584145 0.044358023 0.05872725 0.077089265 -0.13786547 -0.08819566 -0.16349208 -0.15356402
0.038243994 0.15379028 -0.030325161 0.041283254 0.12894925 -0.0010613999 0.1030319 -0.015922707
0.087986976 -0.04127899 -0.084187314 -0.02354495 -0.16069062 -0.06307216 -0.06671589 0.05900732
0.019795777 -0.029313764 -0.08894593 -0.08155051 0.09814263 -0.0027780733 0.08471255 0.17847656
-0.07628743 0.041608166 -0.010813793 0.03300518 -0.11393531 0.09433713 0.09616449 -0.026906542
0.13217708 0.11715948 -4.8039296e-05 -0.03339495 0.049392797 0.042025644 0.08104047 -0.16451743
-0.0010657907 0.040349185 0.08959797 0.032715015 0.05788878 0.09819706 0.16599914 0.038862027
0.18996644 -0.055486176 0.06800896 -0.028718734 -0.053562067 0.1785228 -0.090800956 0.03734168
-0.09243367 0.011187866 0.06293627 -0.04768561 -0.03329347 0.04884113 -0.08656325 -0.0025502471
0.024202742 0.11907159 -0.0137245795 0.04637286 -0.0076694936 -0.074795395 0.1044388 0.12905721
-0.05059551 0.09841409 0.09222707 0.11882078 0.10450743 -0.02881411 0.070990294 -0.030987522
00000000: 719a 32bd 5f03 cd3d e467 3fbc ab60 073c
00000010: 90a2 bd3c d0fc 22bc f031 bf3d 2d77 1fbd
00000020: cec1 9b3d fad1 82bd 96b4 6d3d 6ec6 c1bd
00000030: 1c38 36bb 5327 9bbd efcb 2c3d f562 703d
00000040: c070 eb3a 5bd5 08bd b4a2 873d 6d88 2e3e
00000050: 1952 0bbe e43a c0bd c5d5 d43d f04c 983c
00000060: effa ae3c 2723 91bd 7d49 a2bd 90d9 933d
00000070: 0e5f fa3b 3696 dd3c 2e99 c1bd 04e4 c93d
00000080: 2eb0 80bd 68d2 603d b4ea 10bc 2cd6 4c3d
00000090: 3bf2 b83d 229e 203c 461b 243d 918e 77bd
000000a0: 33da 653d 68d3 03bd 7084 8d3d 8ef2 403e
000000b0: a5db 873c 64f9 52bd ee21 95bd 9a6a d2bc
000000c0: 02f1 98bd 8c0e 1e3d 6c53 03be 63aa 943d
000000d0: 3043 7dbc 556b 273d e24a 11bc a004 b03b
000000e0: dfe5 a8bc a40b fcbd 5dbd 443d 7eaf 17bd
000000f0: bd45 bf3d 9537 2cbd 5750 703d fe20 263c
00000100: 99fd ab3d 2366 86bd bee4 b23b cf09 6f3d
00000110: 7635 13be d1b8 4abe 39c9 f53c f8dc 85ba
00000120: efe0 aa3d 8152 e23d 4f7d 8e3d 8d70 c53d
00000130: 8721 06be aa66 de3a 356a 76bc 6f46 8abc
00000140: 37dc b43c 3f81 763d 6c22 0fbe d2d8 20be
00000150: 408d 0f3e 1285 fcbd 42cf 373d 0b92 c93d
00000160: 4694 183e c9d9 eebd c7bb e9bc 581f 023d
00000170: 3fb4 023e 1a3a 123d ee02 4a3d 1620 0c3d
00000180: 7ef6 89bc 9ec6 803d 47f0 3ebd bb90 ccbd
00000190: a41e 403d c33a bcbd 18f2 343c 56bc 85bc
000001a0: 5c91 38bd 5c00 053d 53f8 61bd 8112 143e
000001b0: cef8 4dbd e450 79bd 523d 3bbd 76a9 1bbc
000001c0: f6c7 d8bb 505f 10bd b604 7cbd 594a 663c
000001d0: 9240 6a3d edc7 593d ed44 823d 4bb1 e73c
000001e0: fb68 d4bc 79d7 593d 6250 26bd a8d9 a73d
000001f0: 8243 e63d a3cd df3c 603d cbbc cff1 f0bd
00000200: 171d aebd 031a 24be 0cfd 6cbd 13be 04be
00000210: 05f2 38bd 8f72 623d 2331 713d 9b81 31be
00000220: f278 083d 2f78 5abd 99aa 0fbe 4252 09be
00000230: 2fa9 69bd 2454 e53d 6545 6f3d 81e0 143e
00000240: 2d7d 093e e12f 4cbd da65 06be fe43 5c3c
00000250: 9313 2b3e 1376 1bbe 3c35 a03d bd35 d43d
00000260: 0a6a 72bd e995 2abc 18f2 f33d a27e 193c
00000270: 7015 e7bc 2353 d33c e0aa 173e 7582 9bbc
00000280: cd2e 393d 82eb cbbd 53db f1bd 6fc2 da3c
00000290: ce68 6c3d 8162 80bd 54ac 003d 5492 3c3e
000002a0: 01ba 643d c2b0 353d fc8b 703d fae0 9d3d
000002b0: 9b2c 0dbe ed9f b4bd 786a 27be e33f 1dbe
000002c0: bca5 1c3d 337b 1d3e 796c f8bc a118 293d
000002d0: 460b 043e ac1e 8bba 6402 d33d 5670 82bc
000002e0: 8432 b43d 2914 29bd 666a acbd 57e1 c0bc
000002f0: 158c 24be fa2b 81bd 57a2 88bd a9b1 713d
00000300: c12a a23c 6b23 f0bc 4929 b6bd f403 a7bd
00000310: 01ff c83d 5610 36bb c67d ad3d 8fc2 363e
00000320: 963c 9cbd 536d 2a3d 562c 31bc 7130 073d
00000330: ea56 e9bd d333 c13d e3f1 c43d 1c6b dcbc
00000340: 6e59 073e 4ff1 ef3d cd7d 49b8 25c9 08bd
00000350: 1a50 4a3d 1523 2c3d 8cf8 a53d 4277 28be
00000360: 00b2 8bba 3045 253d 247f b73d 2e00 063d
00000370: c91c 6d3d 8a1b c93d aefb 293e ca2d 1f3d
00000380: 9086 423e 7945 63bd 4848 8b3d 8d43 ebbc
00000390: e663 5bbd aece 363e daf5 b9bd 97f3 183d
000003a0: dd4d bdbd 504d 373c bbe4 803d fc51 43bd
000003b0: bc5e 08bd a30d 483d 1348 b1bd 0c22 27bb
000003c0: d444 c63c cedb f33d 0fdd 60bc 78f1 3d3d
000003d0: 6050 fbbb 542e 99bd 02e4 d53d 9327 043e
000003e0: 3d3d 4fbd 548d c93d 8ce1 bc3d 4f58 f33d
000003f0: fe07 d63d 920b ecbc 5c63 913d 8bd9 fdbc

output_layer.bias f4 [10]
-0.034663204 0.015315005 -0.007406032 -0.094246134 -0.00036886087 0.012022618 -0.03849373 0.06880821
0.065886654 0.0038253125
00000000: 01fb 0dbd c9eb 7a3c 4dae f2bb 1e04 c1bd
00000010: ab63 c1b9 84fa 443c 9aab 1dbd 52eb 8c3d
00000020: 95ef 863d 18b2 7a3b
